…
[2025-12-24 23:56:08,178][speechbrain.utils.parameter_transfer][DEBUG] - Redirecting (loading from local path): generator -> /data0/determined/users/andywu/Audio-CALM-v2/tmp_hifigan/generator.ckpt
[2025-12-24 23:56:08,223][eval][INFO] - âœ… SpeechBrain HiFi-GAN loaded.
[2025-12-24 23:56:10,178][eval][INFO] - ðŸ§ª Running Oracle Test (Diagnostic Mode)...
[2025-12-24 23:56:10,179][eval][INFO] - ðŸ“Š GT Latent Input Shape: torch.Size([1, 64, 64])
[2025-12-24 23:56:10,379][eval][INFO] - ðŸ” [Debug-Weights] Active Adapters: <bound method PeftAdapterMixin.active_adapters of Qwen2ForCausalLM(
  (model): Qwen2Model(
    (embed_tokens): Embedding(152064, 3584)
    (layers): ModuleList(
      (0-27): 28 x Qwen2DecoderLayer(
        (self_attn): Qwen2Attention(
          (q_proj): lora.Linear(
            (base_layer): Linear(in_features=3584, out_features=3584, bias=True)
            (lora_dropout): ModuleDict(
              (tts): Dropout(p=0.05, inplace=False)
            )
            (lora_A): ModuleDict(
              (tts): Linear(in_features=3584, out_features=64, bias=False)
            )
            (lora_B): ModuleDict(
              (tts): Linear(in_features=64, out_features=3584, bias=False)
            )
            (lora_embedding_A): ParameterDict()
            (lora_embedding_B): ParameterDict()
            (lora_magnitude_vector): ModuleDict()
          )
          (k_proj): lora.Linear(
            (base_layer): Linear(in_features=3584, out_features=512, bias=True)
            (lora_dropout): ModuleDict(
              (tts): Dropout(p=0.05, inplace=False)
            )
            (lora_A): ModuleDict(
              (tts): Linear(in_features=3584, out_features=64, bias=False)
            )
            (lora_B): ModuleDict(
              (tts): Linear(in_features=64, out_features=512, bias=False)
            )
            (lora_embedding_A): ParameterDict()
            (lora_embedding_B): ParameterDict()
            (lora_magnitude_vector): ModuleDict()
          )
          (v_proj): lora.Linear(
            (base_layer): Linear(in_features=3584, out_features=512, bias=True)
            (lora_dropout): ModuleDict(
              (tts): Dropout(p=0.05, inplace=False)
            )
            (lora_A): ModuleDict(
              (tts): Linear(in_features=3584, out_features=64, bias=False)
            )
            (lora_B): ModuleDict(
              (tts): Linear(in_features=64, out_features=512, bias=False)
            )
            (lora_embedding_A): ParameterDict()
            (lora_embedding_B): ParameterDict()
            (lora_magnitude_vector): ModuleDict()
          )
          (o_proj): lora.Linear(
            (base_layer): Linear(in_features=3584, out_features=3584, bias=False)
            (lora_dropout): ModuleDict(
              (tts): Dropout(p=0.05, inplace=False)
            )
            (lora_A): ModuleDict(
              (tts): Linear(in_features=3584, out_features=64, bias=False)
            )
            (lora_B): ModuleDict(
              (tts): Linear(in_features=64, out_features=3584, bias=False)
            )
            (lora_embedding_A): ParameterDict()
            (lora_embedding_B): ParameterDict()
            (lora_magnitude_vector): ModuleDict()
          )
        )
        (mlp): Qwen2MLP(
          (gate_proj): lora.Linear(
            (base_layer): Linear(in_features=3584, out_features=18944, bias=False)
            (lora_dropout): ModuleDict(
              (tts): Dropout(p=0.05, inplace=False)
            )
            (lora_A): ModuleDict(
              (tts): Linear(in_features=3584, out_features=64, bias=False)
            )
            (lora_B): ModuleDict(
              (tts): Linear(in_features=64, out_features=18944, bias=False)
            )
            (lora_embedding_A): ParameterDict()
            (lora_embedding_B): ParameterDict()
            (lora_magnitude_vector): ModuleDict()
          )
          (up_proj): lora.Linear(
            (base_layer): Linear(in_features=3584, out_features=18944, bias=False)
            (lora_dropout): ModuleDict(
              (tts): Dropout(p=0.05, inplace=False)
            )
            (lora_A): ModuleDict(
              (tts): Linear(in_features=3584, out_features=64, bias=False)
            )
            (lora_B): ModuleDict(
              (tts): Linear(in_features=64, out_features=18944, bias=False)
            )
            (lora_embedding_A): ParameterDict()
            (lora_embedding_B): ParameterDict()
            (lora_magnitude_vector): ModuleDict()
          )
          (down_proj): lora.Linear(
            (base_layer): Linear(in_features=18944, out_features=3584, bias=False)
            (lora_dropout): ModuleDict(
              (tts): Dropout(p=0.05, inplace=False)
            )
            (lora_A): ModuleDict(
              (tts): Linear(in_features=18944, out_features=64, bias=False)
            )
            (lora_B): ModuleDict(
              (tts): Linear(in_features=64, out_features=3584, bias=False)
            )
            (lora_embedding_A): ParameterDict()
            (lora_embedding_B): ParameterDict()
            (lora_magnitude_vector): ModuleDict()
          )
          (act_fn): SiLUActivation()
        )
        (input_layernorm): Qwen2RMSNorm((3584,), eps=1e-06)
        (post_attention_layernorm): Qwen2RMSNorm((3584,), eps=1e-06)
      )
    )
    (norm): Qwen2RMSNorm((3584,), eps=1e-06)
    (rotary_emb): Qwen2RotaryEmbedding()
  )
  (lm_head): Linear(in_features=3584, out_features=152064, bias=False)
)>
[2025-12-24 23:56:10,383][eval][INFO] - ðŸ” [Debug-Weights] Input Proj Stats: Mean=-0.000025, Std=0.046387
[2025-12-24 23:56:10,391][eval][INFO] - ðŸ“ [Debug-Prompt] Raw Text: "<|im_start|>user\nRead this text:\nEven if we were married I could never be sure you weren't kissing some horrid girl or other.<|im_end|>\n<|im_start|>assistant\n"
[2025-12-24 23:56:10,419][eval][INFO] - ðŸ”¢ [Debug-Token] IDs: [151644, 872, 198, 4418, 419, 1467, 510, 13159, 421, 582, 1033, 12224, 358, 1410, 2581, 387, 2704, 498, 14716, 944, 51046, 1045, 4812, 1869, 3743, 476, 1008, 13, 151645, 198, 151644, 77091, 198]
…
